…
Proceed with run?  (y/n): y
2021-09-20 15:02:37.104545: I tensorflow/core/platform/cpu_feature_guard.cc:142] This TensorFlow binary is optimized with oneAPI Deep Neural Network Library (oneDNN) to use the following CPU instructions in performance-critical operations:  AVX2 FMA
To enable them in other operations, rebuild TensorFlow with the appropriate compiler flags.
Model: "sequential"
_________________________________________________________________
Layer (type)                 Output Shape              Param #   
=================================================================
conv2d (Conv2D)              (None, 38, 38, 16)        5824      
_________________________________________________________________
activation (Activation)      (None, 38, 38, 16)        0         
_________________________________________________________________
max_pooling2d (MaxPooling2D) (None, 18, 18, 16)        0         
_________________________________________________________________
conv2d_1 (Conv2D)            (None, 18, 18, 20)        8020      
_________________________________________________________________
activation_1 (Activation)    (None, 18, 18, 20)        0         
_________________________________________________________________
max_pooling2d_1 (MaxPooling2 (None, 8, 8, 20)          0         
_________________________________________________________________
conv2d_2 (Conv2D)            (None, 8, 8, 30)          5430      
_________________________________________________________________
activation_2 (Activation)    (None, 8, 8, 30)          0         
_________________________________________________________________
max_pooling2d_2 (MaxPooling2 (None, 3, 3, 30)          0         
_________________________________________________________________
flatten (Flatten)            (None, 270)               0         
_________________________________________________________________
dense (Dense)                (None, 48)                13008     
_________________________________________________________________
dense_1 (Dense)              (None, 2)                 98        
=================================================================
Total params: 32,380
Trainable params: 32,380
Non-trainable params: 0
_________________________________________________________________
None
Dataset selected:  ./DATASET/CNRP.ds
Loading data set defined in:  DATASET/CNRP/LABELS/train.txt
Total file count:  94493
> 100.0% [██████████████████████████████] loaded: 94493/94493 - skipped: 0 - converted: 2061
…
